best_model.pt (torch, 13223 bytes, 21 tensors)

block_1.0.weight f4 [2, 1, 2]
0	0x3ea63d9e	0.32468885
1	0x3ea3cb07	0.31990835
2	0xbeeb9d5c	-0.46018493
3	0x3eb2e08c	0.3493694

block_1.0.bias f4 [2]
0	0x3e02a520	0.12758303
1	0x3da64bfd	0.08119962

block_1.1.weight f4 [2]
0	0x3f78a4cc	0.9712646
1	0x3f83bd5f	1.0292166

block_1.1.bias f4 [2]
0	0xbcee36cd	-0.029078865
1	0xbc2c17d2	-0.010503726

block_1.1.running_mean f4 [2]
0	0x3e06186e	0.13095257
1	0x3da51c00	0.08061981

block_1.1.running_var f4 [2]
0	0x3b2c2417	0.0026266628
1	0x3912a8a3	0.00013986467

block_1.3.weight f4 [1, 2, 1]
0	0xbea5a5e6	-0.32353133
1	0xbf2a2bf4	-0.6647332

block_2.0.weight f4 [2, 1, 2]
0	0xbf3d0a3e	-0.73843753
1	0x3e3aecdb	0.18254416
2	0x3e8abd81	0.27097705
3	0xbf12c7e3	-0.5733625

block_2.0.bias f4 [2]
0	0x3f07ef46	0.5309948
1	0x3ef4bf7a	0.47802335

block_2.1.weight f4 [2]
0	0x3f7a70dc	0.9782846
1	0x3f82c752	1.0217078

block_2.1.bias f4 [2]
0	0xbd0ea5d3	-0.03482611
1	0xbc40c0ba	-0.0117647

block_2.1.running_mean f4 [2]
0	0x3edbaa6c	0.4290346
1	0x3ed85a50	0.42256403

block_2.1.running_var f4 [2]
0	0x3b33875e	0.0027393918
1	0x3a68f425	0.0008886478

block_2.3.weight f4 [1, 2, 2]
0	0xbef263a8	-0.47341657
1	0x3ea67f4f	0.32519004
2	0xbe5ac041	-0.21362402
3	0x3eab5985	0.33466735

block_3.0.weight f4 [2, 1, 1]
0	0x3f1af6ed	0.6053303
1	0x3f7480d0	0.9550905

block_3.0.bias f4 [2]
0	0xbe948229	-0.29005554
1	0xbf6fff2f	-0.93748754

block_3.1.weight f4 [2]
0	0x3f7c792c	0.98622394
1	0x3f81d116	1.0141933

block_3.1.bias f4 [2]
0	0xbd1a6e0e	-0.037702613
1	0xbd3033b5	-0.04301806

block_3.1.running_mean f4 [2]
0	0xbe1831a7	-0.14862691
1	0xbf36df0c	-0.7143409

block_3.1.running_var f4 [2]
0	0x3e4f9ba0	0.2027421
1	0x3f0135f9	0.5047298

block_3.4.weight f4 [1, 2, 2]
0	0x3ea10fc0	0.3145733
1	0xbed71157	-0.42005417
2	0xbf0a4ab6	-0.5402025
3	0x3ecfbdb1	0.4057441
